.dart_tool/chrome-device/Default/optimization_guide_prediction_model_downloads/83b05444-4076-4ab3-bbc0-603c5e667d20/model.tflite (tflite, 409956 bytes, 166 tensors)

context_transformer_0/bottleneck_input/norm/add f4 [32]
0	0x3c7c0670	0.015382394
1	0xbdf12150	-0.11773932
2	0x3d2d2064	0.04226722
3	0xbd34ddd5	-0.044156868
4	0x3c4eb3c0	0.012616098
5	0xbc82c839	-0.015964614
6	0x3d7315aa	0.059346832
7	0x3d995992	0.07487787
8	0x3b837e19	0.0040128347
9	0x3d9b9ad3	0.0759789
10	0x3ddfbf98	0.109252155
11	0x3d791113	0.0608073
12	0x3de14dff	0.11001205
13	0x3d84a4d4	0.06476751
14	0xbcaa0090	-0.020752221
15	0x3c3e68e0	0.011621684
16	0x3da205f1	0.079112895
17	0x3d150e7d	0.03639077
18	0x3c255921	0.010092051
19	0x3c9d66cc	0.019214056
20	0x3be7f751	0.007079043
21	0xbd2b0402	-0.04175187
22	0x3b7872b8	0.0037910175
23	0x3dd8582e	0.10563694
24	0x3dd5d223	0.10440471
25	0x3e0e89b2	0.13919714
26	0xbd7abe6c	-0.061216757
27	0xbdc7fae3	-0.0976465
28	0x3afd5e50	0.0019330475
29	0x3c15de21	0.009147198
30	0x3ba9a2db	0.0051768846
31	0x3d533f9e	0.051574342

context_transformer_1/bottleneck_input/norm/add f4 [32]
0	0xbe4397fa	-0.19100943
1	0x3d9a0b13	0.075216435
2	0xbd5e8021	-0.054321412
3	0xbd8b8a60	-0.06813502
4	0xbda08b61	-0.078390844
5	0x3d44c210	0.048036635
6	0x3e1f09a6	0.15531024
7	0xbc8b613d	-0.01701414
8	0xbda7f337	-0.082006864
9	0x3da4a470	0.080391765
10	0xbe31f3d3	-0.17378168
11	0x3bee1996	0.0072662337
12	0xba5f1920	-0.0008510519
13	0xbe0b27b9	-0.13589372
14	0xbd2ef344	-0.042712465
15	0x3d05004f	0.032470997
16	0x3cc38631	0.023867698
17	0xbd0c1b19	-0.03420553
18	0x3e540c7b	0.20707886
19	0x3d9ccb64	0.07655981
20	0x3d523cea	0.051327623
21	0x3d8e0c00	0.069358826
22	0xbc730354	-0.014832336
23	0xbdc47d05	-0.09594158
24	0xbd6e9ed6	-0.058256947
25	0x3d2a5121	0.041581277
26	0x3dd8b27a	0.10580917
27	0x3c184acc	0.009295177
28	0x3e9e4162	0.30909258
29	0xba8cca5c	-0.001074146
30	0x3d10d2e2	0.035357364
31	0xbe2989cc	-0.16556472

mention_transformer_0/bottleneck_input/norm/add f4 [32]
0	0xbde625e3	-0.11237695
1	0x3c512cd5	0.012767036
2	0x3e4990de	0.19684169
3	0x3e401668	0.18758547
4	0xbd30f026	-0.043197773
5	0x3e066780	0.1312542
6	0xbdccbacc	-0.09996566
7	0x3e3ea0de	0.18616053
8	0xbcce496b	-0.025181493
9	0xbd8f9ebf	-0.070127
10	0x3ddac2f4	0.106817156
11	0xbe289977	-0.16464792
12	0x3e013c24	0.12620598
13	0x3e11088e	0.1416342
14	0x3dc56231	0.09637869
15	0x3de36262	0.111027494
16	0x3d74dd1b	0.059781175
17	0x3e0f91d2	0.1402047
18	0xbe8b014c	-0.27149427
19	0xbd5d554a	-0.054036416
20	0xbd89ff18	-0.067381084
21	0x3e430574	0.19045049
22	0xbe2c5ebb	-0.16833012
23	0x3d20ef6e	0.039290838
24	0x3e8f3787	0.27972052
25	0xbdf13faa	-0.11779721
26	0xbd841b45	-0.06450514
27	0xbd73b730	-0.059500873
28	0xbe09dcda	-0.13463154
29	0x3de6561c	0.11246893
30	0x3dba39aa	0.0909303
31	0x3de601c6	0.11230807

mention_transformer_1/bottleneck_input/norm/add f4 [32]
0	0xbe3bcd18	-0.18339956
1	0xbe061aeb	-0.13096206
2	0xbdbb2be8	-0.09139234
3	0x3dbd9baa	0.09258206
4	0xbe1532b0	-0.14570117
5	0x3eeaabb9	0.4583414
6	0xbe7c57d0	-0.24642873
7	0xbde659de	-0.112476096
8	0xbde2120f	-0.11038601
9	0xbdcac2c7	-0.09900432
10	0x3eb04022	0.3442393
11	0xbe2d1933	-0.16904144
12	0xbd0f8abe	-0.035044424
13	0x3e35e35e	0.17762515
14	0xbde40271	-0.11133278
15	0xbca2243e	-0.019792672
16	0x3ef1189e	0.47089094
17	0xbe0e1825	-0.13876398
18	0xbe3816bc	-0.17977422
19	0x3cb0f02a	0.021598894
20	0x3d9f8f18	0.07790965
21	0x3d3394ac	0.043842956
22	0x3d95362a	0.072857216
23	0xbe22470b	-0.15847413
24	0x3eeb619a	0.45972902
25	0xbeba4637	-0.36381695
26	0x3eaf211e	0.34204954
27	0xbe0ac7ce	-0.13552782
28	0xbee69af4	-0.45040095
29	0x3f025dc8	0.5092435
30	0x3d91a678	0.071118295
31	0x3cbac80a	0.022800464

context_transformer_0/attention/value/add;context_transformer_0/attention/value/einsum/Einsum;context_transformer_0/attention/value/add/ReadVariableOp/resource f4 [32]
0	0x3b6d38be	0.003619715
1	0x3d2217aa	0.03957335
2	0xbd617206	-0.05504038
3	0xbd94093f	-0.07228326
4	0x3d1bf300	0.03807354
5	0x3d811cc7	0.06304317
6	0x3d4f1925	0.05056109
7	0xbd9a685c	-0.07539436
8	0x3dc422e0	0.095769644
9	0xbd5d2ea2	-0.05399955
10	0xbc2f1950	-0.010687187
11	0xbd8328e2	-0.06404282
12	0xbd587ee9	-0.052855406
13	0x3d1747c9	0.036933694
14	0x3cb802be	0.022462245
15	0xbc79dc8c	-0.015250336
16	0x3da035b3	0.07822742
17	0xbd530371	-0.051516954
18	0xbc2b2315	-0.010445376
19	0x3c07606c	0.008262735
20	0xbd231665	-0.03981628
21	0x3b1499e6	0.0022674738
22	0x3c458919	0.012056612
23	0x3d1ceebd	0.038313616
24	0xbd6592ff	-0.05604839
25	0xbd97c3eb	-0.07410415
26	0xbc9bc653	-0.019015467
27	0xbd75013c	-0.05981563
28	0xbd1e75f1	-0.038686696
29	0xbcb58ab6	-0.02216087
30	0xbdad516a	-0.08462794
31	0xbca54dca	-0.020178694

context_transformer_0/bottleneck_input/norm/mul f4 [32, 32]
0	0xbd2e4356	-0.042544685
1	0xbd8dd165	-0.069247045
2	0xbcf37d1b	-0.02972274
3	0xbc83c157	-0.016083403
4	0x3d32b18c	0.043626353
5	0x3ce0d127	0.027443482
6	0xbd8c75ea	-0.06858428
7	0x3da30467	0.07959824
8	0x3daf5713	0.0856153
9	0x3d779360	0.060443282
10	0x3cde1dd6	0.027113836
11	0xbbbe951b	-0.0058161146
12	0x3de42719	0.1114027
13	0x3d98fd21	0.074701555
14	0xbd283419	-0.04106531
15	0x3c70084f	0.014650418
16	0x3d384273	0.044985246
17	0x3d99731d	0.07492659
18	0x3c04374e	0.008069826
19	0xbccb3736	-0.0248066
20	0xbd0dffb1	-0.034667674
21	0x3db4baa8	0.08824664
22	0xbd50c41b	-0.05096827
23	0x3d76b233	0.060228538
24	0x3bc01c42	0.0058627436
25	0x3cea2400	0.02858162
26	0x3d129f21	0.03579629
27	0xbda64794	-0.08119121
28	0xbd76540f	-0.06013876
29	0x3d84ba5d	0.064808585
30	0x3ddef056	0.10885684
31	0x3dab7adf	0.08373045
32	0x3eccd773	0.40008125
33	0x3d5dd849	0.054161344
34	0x3e193f81	0.14965631
35	0x3d136686	0.035986446
36	0xbdad88cf	-0.0847336
37	0x3e038671	0.12844254
38	0x3d618d53	0.055066418
39	0xbd5de862	-0.054176696
40	0x3c833c3f	0.016019939
41	0x3f0d3be6	0.5516952
42	0x3e90ee1b	0.2830666
43	0xbe0a1f38	-0.13488472
44	0x3ca71e09	0.020400064
45	0x3d627191	0.055284087
46	0xbdea259c	-0.11432955
47	0x3dfb5bf7	0.122734
48	0xbf422992	-0.7584468
49	0xbd06bce5	-0.032894988
50	0xbe9de9f5	-0.30842558
51	0x3df390eb	0.11892875
52	0xbb5a6927	-0.0033326836
53	0x3e87fbcf	0.26559302
54	0xbe83e39a	-0.25759584
55	0x3f107c59	0.5643974
56	0x3e9565f2	0.2917934
57	0xbf195918	-0.5990157
58	0xbe585e26	-0.21129665
59	0xbcbd653d	-0.023119563
60	0x3da49d12	0.08037771
61	0x3e7a4c76	0.2444323
62	0xbea5c95d	-0.3238019
63	0x3c4365aa	0.011926094
64	0x3dd0f99c	0.10203859
65	0xbe5f3aad	-0.21799727
66	0xbdedb4c5	-0.11606745
67	0x3b8426d1	0.0040329476
68	0x3d3db725	0.04631724
69	0x3c111823	0.008855852
70	0xbe5fb085	-0.2184468
71	0xbe270b70	-0.16312957
72	0x3cbeabfb	0.023275366
73	0xbe18fdda	-0.14940587
74	0xbdee931b	-0.11649152
75	0x3d9f2170	0.077700496
76	0xbd8e88d1	-0.069596894
77	0x3cc1adf0	0.02364251
78	0xbe64b4e2	-0.22334626
79	0xbd1f282f	-0.03885668
80	0xbe640d4b	-0.22270696
81	0xbe4132ef	-0.18867086
82	0xbe025848	-0.12728989
83	0x3e6f376c	0.23360986
84	0x39cc2aaa	0.000389417
85	0x3dedfed2	0.11620869
86	0xbdc534b1	-0.09629191
87	0x3e7aba52	0.24485138
88	0xbdded82c	-0.10881075
89	0x3e091ba5	0.13389452
90	0xbd26b757	-0.04070219
91	0x3e837cad	0.25681058
92	0xbd960c12	-0.07326521
93	0xbd9f8400	-0.07788849
94	0xbcef0c53	-0.029180681
95	0xbd892a91	-0.06697572
96	0xbd11bf75	-0.03558298
97	0x3e9d3274	0.30702555
98	0xbd302ead	-0.043013263
99	0xbda4749a	-0.080300525
100	0x3e747263	0.2387176
101	0xbdabe0fa	-0.0839252
102	0xbe0dbaf0	-0.13840842
103	0xbe0bf739	-0.13668527
104	0x3d532d06	0.05155661
105	0x3c504eea	0.012714127
106	0xbe07f35a	-0.13276425
107	0x3e6537f3	0.22384624
108	0xbe011e59	-0.12609233
109	0xbe89052c	-0.26761758
110	0xbc068320	-0.008209974
111	0x3e8e8081	0.27832416
112	0x3caafba5	0.020871947
113	0xbe9353f2	-0.28774983
114	0x3e0cbb30	0.13743281
115	0x3dec0be4	0.115257055
116	0x3d834ba1	0.064109094
117	0x3df69648	0.120403826
118	0x3cc837db	0.024440696
119	0xbdb4ef65	-0.088347234
120	0x3d932e9a	0.07186623
121	0x3e227408	0.15864575
122	0x3d5d275a	0.053992607
123	0xbe3ad73b	-0.18246166
124	0x3d384efc	0.0449972
125	0xbe4ccbf9	-0.19999684
126	0xbddabeac	-0.10680899
127	0xbdd64125	-0.10461644
128	0x3e136c74	0.1439684
129	0xbeeb007e	-0.45898813
130	0xbe2a1701	-0.16610338
131	0x3e3f9ab1	0.18711354
132	0xbe47e888	-0.19522297
133	0xbf2ad8c8	-0.6673703
134	0x3e79f5f2	0.24410227
135	0xbe8708f8	-0.2637403
136	0x3ea06581	0.3132744
137	0x3f0c32e6	0.54765165
138	0x3e6b780b	0.22995012
139	0xbeb28cd4	-0.34873068
140	0xbee8af15	-0.45446077
141	0x3ebc23fd	0.36746207
142	0xbefc090b	-0.4922565
143	0x3e7b14b5	0.24519618
144	0x3ea56817	0.32305977
145	0xbeab4b0c	-0.33455694
146	0x3d0b3538	0.0339863
147	0xbe3155fb	-0.17317955
148	0x3db7e85f	0.08979868
149	0xbf239a2f	-0.6390714
150	0x3e107b83	0.14109616
151	0x3effb84e	0.499453
152	0xbd1370b2	-0.035996147
153	0x3eeae228	0.4587567
154	0xbeb345e4	-0.3501426
155	0xbe285278	-0.1643771
156	0x3ce79fd5	0.028274456
157	0x3ed634ac	0.4183706
158	0xbb4cb331	-0.0031234736
159	0x3db38e1a	0.08767338
160	0x3e1049cf	0.14090656
161	0xbbef1a42	-0.0072968313
162	0xbd99bf74	-0.0750722
163	0xbd99e015	-0.075134434
164	0xbd499b04	-0.0492201
165	0xbd5bbe37	-0.0536482
166	0xbab28918	-0.0013621179
167	0xbd1cb4f2	-0.0382585
168	0xbde88a37	-0.113544874
169	0xbdd88fbf	-0.105742924
170	0x3e58ecd9	0.211841
171	0x3e575e90	0.21032166
172	0xbc71ddb2	-0.014762329
173	0x3e3dd62b	0.1853873
174	0xbd7acade	-0.061228625
175	0xbd2a6247	-0.04159763
176	0x3df36aac	0.118855804
177	0x3d1dc670	0.038519323
178	0x3d306900	0.043068886
179	0x3bde0f75	0.006776745
180	0xbdd73725	-0.10508565
181	0x3e4db604	0.20088965
182	0xbd85eb19	-0.06538982
183	0xbd4017d7	-0.046897735
184	0xbe24a0dc	-0.16076988
185	0xbe23a7be	-0.15981957
186	0xbd109763	-0.035300624
187	0xbd812caf	-0.06307351
188	0x3dc54b20	0.096334696
189	0xbdeb2a24	-0.11482647
190	0x3e16bb7d	0.14719959
191	0xbd6a0ec7	-0.057143
192	0xbe6ec4f1	-0.23317315
193	0xbd4f6ff7	-0.050643887
194	0x3e153aa8	0.14573157
195	0x3bb3ece3	0.0054908856
196	0x3e199609	0.1499864
197	0x3cd78aed	0.026311362
198	0xbd0ffa0a	-0.035150565
199	0xbde5980e	-0.11210643
200	0x3e409870	0.1880815
201	0x3d59dabe	0.053187124
202	0x3c39d091	0.01134123
203	0x3d5df8a8	0.054192215
204	0x3e0ba5bb	0.1363744
205	0x3c850a28	0.016240194
206	0xbc9f38f6	-0.01943634
207	0xbd711dd3	-0.058866333
208	0xbc89c409	-0.01681711
209	0x3c003a19	0.007826352
210	0x3ddd57a4	0.10807732
211	0xbd9f52ea	-0.077794865
212	0xbd2e5708	-0.04256347
213	0xbd119f79	-0.035552476
214	0xbceb35dd	-0.028712207
215	0xbc224af9	-0.00990557
216	0x3d15bd4c	0.03655748
217	0x3dcfdb54	0.101492554
218	0x3e6f9d7f	0.23399924
219	0xbe6aeddb	-0.22942297
220	0xbd88bf9b	-0.06677171
221	0x3d991776	0.07475178
222	0xbdd43b00	-0.10362816
223	0x3e622344	0.22083765
224	0x3e861d4e	0.26194233
225	0x3e9089bd	0.28230086
226	0x3ea24d04	0.31699383
227	0xbf03ef8e	-0.51537406
228	0x3deed8b0	0.116624236
229	0x3c99b409	0.018762605
230	0xbed1f466	-0.41006774
231	0xbef897da	-0.48553354
232	0xbf2ee7ce	-0.68322456
233	0x3e837a53	0.25679263
234	0x3ed7fa6e	0.4218325
235	0xbe9ce75e	-0.3064527
236	0xbf012ba1	-0.504572
237	0xbf0334c1	-0.5125237
238	0x3dd8d42e	0.10587345
239	0xbe12e202	-0.14344028
240	0x3f092fed	0.53588754
241	0xbf11ada4	-0.5690558
242	0xbe1399a3	-0.14414077
243	0x3ea23142	0.31678206
244	0x3e51cecd	0.20489044
245	0x3eb267de	0.3484487
246	0x3db46aca	0.08809431
247	0xbeb9624a	-0.362078
248	0xbf4159a1	-0.7552739
249	0xbe200f67	-0.15630876
250	0xbe59c291	-0.21265627
251	0xbf05f79a	-0.52330935
252	0x3e3bdf35	0.18346865
253	0xbd09c6ec	-0.033636972
254	0xbdb4d827	-0.0883029
255	0xbd8bc577	-0.06824773

context_transformer_0/kq_shared_bottleneck/norm/mul;context_transformer_0/kq_shared_bottleneck/norm/add;context_transformer_0/attention/key/einsum/Einsum;context_transformer_0/attention/key/add;context_transformer_0/attention/value/einsum/Einsum;context_transformer_0/attention/key/add/ReadVariableOp/resource f4 [32]
0	0x3e770a17	0.24124943
1	0xbd6fbeef	-0.058531698
2	0xbe791213	-0.24323301
3	0x3e8a6909	0.2703326
4	0xbd163afe	-0.036677353
5	0xbde8ce4c	-0.11367473
6	0x3d236d11	0.039898936
7	0x3ea7d4ef	0.32779643
8	0x3e61a906	0.22037134
9	0x3e7b9b6e	0.2457101
10	0xbe5e7813	-0.21725492
11	0xbe979740	-0.29607582
12	0x3e7042b5	0.23462947
13	0xbe6f936f	-0.23396085
14	0x3e63577c	0.22201341
15	0x3e78bc82	0.2429066
16	0x3e0ce1d1	0.13758017
17	0x3e24e7a1	0.16103984
18	0xbe16dfff	-0.14733885
19	0xbe1d1349	-0.15339388
20	0x3e156fd7	0.14593445
21	0xbe2378ad	-0.15964003
22	0x3ddac199	0.10681457
23	0xbdfb93c2	-0.12284042
24	0x3d4f28b6	0.050575934
25	0xbd1f8d56	-0.038953148
26	0x3da897e7	0.08232098
27	0xbe14a910	-0.14517617
28	0xbe06c0d7	-0.131595
29	0xbe2ea2e3	-0.17054324
30	0xbe234e5b	-0.15947859
31	0x3e1c1bb0	0.15244937

context_transformer_0/kq_shared_bottleneck/norm/mul;context_transformer_0/kq_shared_bottleneck/norm/add;context_transformer_0/attention/key/einsum/Einsum;context_transformer_0/attention/key/add;context_transformer_0/attention/value/einsum/Einsum;context_transformer_0/attention/key/add/ReadVariableOp/resource1 f4 [32, 32]
0	0x3d052fb4	0.032516196
1	0x3c4daa37	0.012552789
2	0x3e5992a4	0.21247345
3	0xbdf7ec93	-0.1210567
4	0xbe8b26f3	-0.27178153
5	0x398c28e6	0.00026733353
6	0xbd0f2136	-0.03494378
7	0xbe022d9d	-0.12712713
8	0xbce6947f	-0.02814698
9	0x3e0364e1	0.12831451
10	0x3df031b9	0.11728234
11	0xbd2fbb8b	-0.042903464
12	0x3e459c3f	0.19297884
13	0x3d5ea4f2	0.054356523
14	0x3dedcfa5	0.11611871
15	0x3d00a518	0.031407446
16	0xbe6b624b	-0.22986715
17	0xbba1b032	-0.004934334
18	0xbd68b8df	-0.05681693
19	0xbe465832	-0.19369581
20	0x3e19b113	0.15008955
21	0x3de14af4	0.11000624
22	0xbdd2da89	-0.102955885
23	0x3e689130	0.22711635
24	0xbdb271dc	-0.08713123
25	0x3c3beccf	0.011470034
26	0x3ec8a2a2	0.3918658
27	0x3b6b173f	0.003587201
28	0xbd960a38	-0.07326168
29	0x3daf36b4	0.08555356
30	0x3db5c9a9	0.08876354
31	0x3e39b481	0.18135263
32	0x3db338ab	0.08751043
33	0xbe5f9df5	-0.218376
34	0xbe329e89	-0.17443289
35	0x3e00e96d	0.12589045
36	0x3e810af1	0.2520366
37	0x3da7e469	0.08197863
38	0x3e1f0948	0.15530884
39	0xbcf4b1b4	-0.029869892
40	0x3d3493e4	0.044086352
41	0xbcfd51c6	-0.030922782
42	0xbe14eddc	-0.14543861
43	0xbda3dc1c	-0.08000967
44	0x3c547511	0.012967364
45	0xbe2272e1	-0.15864135
46	0xbe3c00c6	-0.1835967
47	0x3da42dae	0.08016525
48	0x3df77be6	0.120841786
49	0xbdd3f3d9	-0.103492446
50	0x3d5b2077	0.053497758
51	0x3e463de7	0.19359551
52	0xbdc26a4f	-0.09492933
53	0xbd8d8b85	-0.06911377
54	0x3d6fb414	0.058521345
55	0xbd8e276b	-0.06941112
56	0x3d85d213	0.06534209
57	0x3c2f02de	0.010681836
58	0xbf098977	-0.5372538
59	0xbc62145c	-0.013798799
60	0xbcb48f52	-0.022040997
61	0xbd5e99f8	-0.054346055
62	0xbe4ce5e0	-0.20009565
63	0xbde4a2c4	-0.111638576
64	0xbd69e10c	-0.057099387
65	0xbac65116	-0.0015130367
66	0xbe52f532	-0.20601347
67	0x3dd85770	0.105635524
68	0x3e7958ac	0.24350232
69	0x3c62e5e8	0.013848759
70	0xbcf9a644	-0.03047479
71	0x3de9ceeb	0.114164196
72	0xbd164977	-0.036691155
73	0xbe114446	-0.141862
74	0xbe136b99	-0.14396514
75	0x3c9ed311	0.019387754
76	0xbe50b93f	-0.20383166
77	0xbd2fb16b	-0.04289381
78	0xbdd6e1dc	-0.10492298
79	0xbd45e66a	-0.048315443
80	0x3e9956df	0.2994909
81	0x3cf90da2	0.030402008
82	0x3d80b345	0.06284193
83	0x3e42d68a	0.19027153
84	0xbd9857a0	-0.07438588
85	0xbd8f8fe3	-0.07009866
86	0x3dea3ef5	0.11437789
87	0xbe58bd7a	-0.2116603
88	0x3d85ed1f	0.06539368
89	0xbd2eb69e	-0.042654626
90	0xbe9a5ec7	-0.30150434
91	0xbd616187	-0.05502465
92	0x3d3d0b5e	0.04615342
93	0xbdc82c6f	-0.097741
94	0xbd5e33c9	-0.054248605
95	0xbe03b782	-0.12862971
96	0x3dc7bd21	0.0975287
97	0xbd3cf18e	-0.046128802
98	0x3e10dc75	0.14146598
99	0xbe10fd13	-0.1415904
100	0xbe8497bc	-0.25897014
101	0x3da6bca4	0.08141449
102	0x3d1111b0	0.03541726
103	0xbdeeb1a3	-0.11654975
104	0x3d54bf10	0.051940024
105	0x3e2870a5	0.1644922
106	0x3d7978ce	0.060906224
107	0xbd2e05c5	-0.04248597
108	0x3e6e4a87	0.23270617
109	0x3d7475a4	0.059682503
110	0x3dda6eec	0.10665688
111	0x3dbf9366	0.09354286
112	0xbe2e5ff1	-0.17028786
113	0xbd91b2ad	-0.07114158
114	0xbd1a89c9	-0.03772906
115	0xbe7b2bc7	-0.24528418
116	0x3e0dafbf	0.13836573
117	0x3dcff359	0.10153837
118	0xbe1c77d7	-0.1528009
119	0x3e987e29	0.29783753
120	0xbd82e870	-0.0639199
121	0xbcdd5467	-0.027017785
122	0x3ea40bf0	0.32040358
123	0xbd0aa845	-0.03385188
124	0xbd9e6569	-0.07734186
125	0x3d162af1	0.036662046
126	0x3ce889b8	0.028385982
127	0x3e51bb53	0.20481615
128	0xbe43c6c7	-0.19118796
129	0x3ea74f91	0.32677892
130	0x3b40c503	0.0029414303
131	0xbe1501d1	-0.14551474
132	0xbe8681d1	-0.26270917
133	0xbc89b26e	-0.016808715
134	0xbe9dda10	-0.3083043
135	0x3d59e46f	0.053196367
136	0x3d243432	0.04008884
137	0x3d11edd6	0.03562721
138	0xba875338	-0.0010324484
139	0x3e1685ce	0.1469948
140	0xbdde3944	-0.10850766
141	0x3e565d55	0.20934041
142	0x3d8bdcf2	0.06829251
143	0xbdb2eec2	-0.08736946
144	0x3e99fced	0.3007578
145	0x3e4bf549	0.19917788
146	0xbc9454e6	-0.018106889
147	0xbe55986c	-0.20858926
148	0x3e37b1d4	0.1793893
149	0x3dbc07d8	0.091811836
150	0xbd2db6d9	-0.042410705
151	0x3da9788f	0.08274948
152	0xbdd36d96	-0.10323636
153	0xbdb1fb03	-0.08690455
154	0x3f3a251d	0.7271288
155	0xbe827970	-0.25483274
156	0x3d37dfc9	0.044891153
157	0xbcf77c27	-0.030210568
158	0x3ebdc0a8	0.37061048
159	0x3e18ddfe	0.14928433
160	0x3d055c16	0.032558523
161	0xbe2a153f	-0.16609667
162	0xbe2d78d3	-0.16940622
163	0x3dd3a4f3	0.10334196
164	0x3e92ed15	0.28696504
165	0x3d8e8d33	0.06960525
166	0x3e0cf0b2	0.13763693
167	0x3ca4a0d2	0.020096216
168	0x3d4b0660	0.049566627
169	0xbdbfa49a	-0.09357567
170	0xbd805d6a	-0.06267817
171	0xbd9bde3a	-0.07610746
172	0xbd8a6248	-0.06757027
173	0xbe0ba79b	-0.13638155
174	0xbe01c685	-0.12673385
175	0x3c7c6c81	0.015406729
176	0x3d2ccfb5	0.042190272
177	0xbd54e9f4	-0.051980928
178	0x3d2307a7	0.03980222
179	0x3e7f12cd	0.24909516
180	0xbe0e5de5	-0.13903005
181	0xbd993a74	-0.07481852
182	0x3d999b47	0.0750032
183	0xbe341ff4	-0.17590314
184	0x3d87ee81	0.06637288
185	0x3d834c3e	0.064110264
186	0xbf0f4cd9	-0.55976635
187	0x3d82ba7c	0.06383225
188	0xbb5e6ea7	-0.0033940466
189	0xbd6c97b4	-0.057761863
190	0xbe242a87	-0.16031848
191	0xbe25310d	-0.16131993
192	0xbdfb91ee	-0.12283693
193	0x3e7495b6	0.23885235
194	0x3db9745f	0.09055399
195	0xbdd55000	-0.104156494
196	0xbe8c44d8	-0.27396274
197	0xbd575929	-0.052575264
198	0xbe64f4a6	-0.22358951
199	0x3cd2525a	0.025674034
200	0x3c031920	0.008001596
201	0x3d2a70c4	0.041611448
202	0x3d28d982	0.041223057
203	0x3d9bcc5d	0.076073386
204	0x3bb8df35	0.0056418427
205	0x3e3d0cde	0.1846194
206	0x3da15392	0.07877268
207	0xbd1e4f0b	-0.0386496
208	0x3e0096b5	0.1255749
209	0x3dff7d09	0.124750204
210	0xbceb3cd3	-0.028715527
211	0xbe47d517	-0.19514881
212	0x3e230575	0.1592005
213	0x3dcab0ea	0.09897025
214	0xbd864c65	-0.0655754
215	0x3deb47e0	0.114883184
216	0xbdb01213	-0.085971974
217	0xbd56cfda	-0.052444316
218	0x3f0b509b	0.5441987
219	0xbdfca604	-0.123363525
220	0xbb92098a	-0.0044567036
221	0xbbdb6a9b	-0.006696058
222	0x3e831cec	0.25608003
223	0x3e0879b2	0.13327673
224	0x3dda2fb7	0.10653632
225	0xbd88b251	-0.06674636
226	0x3e666c35	0.22502215
227	0xbe21b794	-0.15792686
228	0xbe8de631	-0.27714685
229	0x3d55a5f6	0.052160226
230	0x3dc02a70	0.09383094
231	0xbe0dc946	-0.13846311
232	0xbc8ac793	-0.016940868
233	0x3e326e78	0.17424953
234	0x3da3c4d1	0.07996524
235	0xbda53926	-0.08067541
236	0x3e881030	0.2657485
237	0x3d491954	0.04909642
238	0x3e01931a	0.12653771
239	0x3df579b3	0.11986103
240	0xbe90c473	-0.2827488
241	0xbdd294d2	-0.102822915
242	0xbd597422	-0.05308927
243	0xbe5198e3	-0.20468478
244	0x3dde7eb3	0.1086401
245	0x3daebd19	0.08532161
246	0xbe253d1c	-0.16136593
247	0x3ea341cd	0.3188614
248	0xbdb9b0fa	-0.09066959
249	0x3b5886e2	0.003303938
250	0x3e9701de	0.29493612
251	0x3de1d9bb	0.11027857
252	0xbd9d9d15	-0.07695977
253	0x3dc4c6cc	0.0960823
254	0x3c8173c7	0.015802277
255	0x3e309fa7	0.17248403

context_transformer_0/kq_shared_bottleneck/norm/mul;context_transformer_0/kq_shared_bottleneck/norm/add;context_transformer_0/attention/query/einsum/Einsum;context_transformer_0/attention/query/add;context_transformer_0/attention/value/einsum/Einsum;context_transformer_0/attention/query/add/ReadVariableOp/resource;context_transformer_0/attention/Mul;context_transformer_0/attention/Mul/y f4 [32]
0	0x3df61b37	0.120169096
1	0xbdd1eb55	-0.10249964
2	0xbe00bec6	-0.12572774
3	0x3dbd5776	0.092451975
4	0xbdc1a707	-0.09455686
5	0xbdaec5e9	-0.08533842
6	0x3c99922d	0.01874646
7	0x3e0f0aa4	0.13968903
8	0x3d920bdf	0.071311705
9	0xbc7589fd	-0.014986512
10	0x3d5bcf11	0.05366427
11	0xbdb770b8	-0.08957046
12	0x3c68bc75	0.014205088
13	0xbd48cf21	-0.04902566
14	0x3d7a3af2	0.06109137
15	0x3d0817ca	0.033225812
16	0x3df62da2	0.120204225
17	0x3e018a5a	0.12650433
18	0xbe1162e6	-0.14197883
19	0xbdf6956b	-0.12040218
20	0x3df92b35	0.12166444
21	0xbe0100ed	-0.1259801
22	0x3dc789ae	0.09743057
23	0xbdee51ae	-0.11636673
24	0x3e9db726	0.30803794
25	0xbd660935	-0.056161124
26	0xbe7bfbca	-0.24607769
27	0xbdc2cf11	-0.09512151
28	0xbcd6adfe	-0.026206013
29	0xbdc40a7e	-0.09572314
30	0xbdc5d639	-0.0966
31	0x3db86dc2	0.0900531

context_transformer_0/kq_shared_bottleneck/norm/mul;context_transformer_0/kq_shared_bottleneck/norm/add;context_transformer_0/attention/query/einsum/Einsum;context_transformer_0/attention/query/add;context_transformer_0/attention/value/einsum/Einsum;context_transformer_0/attention/query/add/ReadVariableOp/resource;context_transformer_0/attention/Mul;context_transformer_0/attention/Mul/y1 f4 [32, 32]
0	0xbc8bce94	-0.017066278
1	0xbd03c28a	-0.03216795
2	0x3a723145	0.0009238909
3	0x3c24eabd	0.010065732
4	0x395a9d1f	0.00020848632
5	0x3c96224a	0.018326897
6	0x3c5b024a	0.013367245
7	0x3b4c752f	0.0031197777
8	0xbd2082d5	-0.03918727
9	0x3c545e87	0.01296199
10	0x3d312143	0.04324461
11	0xbc8e54bc	-0.017374389
12	0x3cb16c2a	0.021658022
13	0xbd4259b9	-0.047448847
14	0xbd0dea89	-0.0346475
15	0x3cdcd73f	0.026958106
16	0xbdb580e4	-0.088624746
17	0xbc184c96	-0.009295603
18	0xbcd27484	-0.025690325
19	0x3d3d8813	0.04627235
20	0xbc5a4686	-0.013322478
21	0xbd638d0c	-0.055554435
22	0x3c9aaf93	0.018882548
23	0x3d2e48e9	0.04255
24	0xbc62357b	-0.013806696
25	0x3d520253	0.051271748
26	0xbdec7dc6	-0.11547427
27	0x3d0110a2	0.031510003
28	0x3d3e4baa	0.046458878
29	0xbd11f677	-0.035635438
30	0xbc7d8d88	-0.015475638
31	0xbc8bb5ee	-0.017054524
32	0x3d91786f	0.07103049
33	0xbd13a27b	-0.036043625
34	0xbd39ddfe	-0.045377724
35	0x3c46f639	0.012143665
36	0x3d481ac7	0.048853662
37	0x3d8dee26	0.06930189
38	0x3d7bad62	0.061444648
39	0xbd283a36	-0.04107114
40	0xbacf90cb	-0.0015835998
41	0x3baeb032	0.0053310627
42	0xbd20c27f	-0.039247986
43	0xbd369e4a	-0.04458455
44	0xbc2ac955	-0.010423978
45	0x3ccf4b27	0.02530439
46	0x3d8052e1	0.06265808
47	0x3d23634c	0.03988962
48	0x3d9ecb33	0.07753601
49	0xbd5d2196	-0.05398711
50	0x3ca1a9c7	0.019734276
51	0xbc8daaf0	-0.017293423
52	0xbc0c256a	-0.008553842
53	0x3c159835	0.009130527
54	0xba83df4a	-0.0010061052
55	0xbd16a2b0	-0.036776245
56	0x3d49fd4e	0.049313836
57	0xbd23615a	-0.039887764
58	0x3d10e1c6	0.035371564
59	0xbc8d00b6	-0.017212253
60	0xbc6c7cac	-0.014434021
61	0xbd3033e7	-0.043018248
62	0xbdd564bc	-0.10419604
63	0x3bc23f4e	0.0059279567
64	0xbbbda911	-0.0057879766
65	0x3d3f9d0f	0.046780642
66	0xbbf0c087	-0.00734717
67	0x3bb40a02	0.005494357
68	0xba883d63	-0.0010394271
69	0xbcd0c016	-0.025482219
70	0xbceb6a61	-0.028737249
71	0x3c5e0d01	0.013552905
72	0x3d86265c	0.06550285
73	0xbc9ec8b2	-0.019382808
74	0xbd2875fb	-0.04112814
75	0x3d30795a	0.04308448
76	0xbcbb75fa	-0.022883404
77	0x3d167520	0.036732793
78	0x3c833360	0.016015708
79	0xbd24aba2	-0.040202744
80	0x3d9903d6	0.07471435
81	0x3cb9a851	0.022663267
82	0x3cc43b6d	0.023954118
83	0xbd357654	-0.0443023
84	0x3ae59fa1	0.0017518887
85	0x3d3a82ea	0.045535006
86	0xbc8b100b	-0.016975423
87	0xbd3607e1	-0.044441108
88	0x3c2c1966	0.010504102
89	0xbd406996	-0.046975695
90	0x3ddcca24	0.10780743
91	0xbd007f29	-0.03137127
92	0xbd37bada	-0.04485593
93	0x3cda6d0c	0.026663326
94	0x3cc2dd31	0.023787113
95	0x3cae7bc6	0.021299254
96	0xbc36802b	-0.011138956
97	0xbd4cf12e	-0.050034694
98	0xbcd62e79	-0.026145207
99	0x3cae4e6a	0.021277625
100	0x3cef768d	0.029231334
101	0x3ca4782d	0.020076836
102	0x3cf183f2	0.029481862
103	0xbb8bcd86	-0.0042664437
104	0xbcff612c	-0.031174265
105	0x3bfc3796	0.007697056
106	0x3d1650e9	0.036698256
107	0xbd15d01e	-0.03657543
108	0x3c79603c	0.015220698
109	0xbd69de41	-0.057096723
110	0xbd2eddbe	-0.04269194
111	0x3d3df934	0.046380237
112	0xbda5c0a7	-0.08093386
113	0xbd18ed31	-0.03733558
114	0xbc04843f	-0.008088171
115	0x3d839eb1	0.06426752
116	0xbcdb05c1	-0.026736142
117	0xbda592f0	-0.08084667
118	0x3d063594	0.03276594
119	0x3cf69ec3	0.030105
120	0x3be61a96	0.0070222123
121	0x3d359df1	0.044340078
122	0xbe09e22e	-0.13465187
123	0x3d371f6b	0.044707697
124	0x3d1f7125	0.038926262
125	0xbd67de7f	-0.056608673
126	0xbd702c0f	-0.058635768
127	0xbccd2d3c	-0.025045983
128	0xbe403ac1	-0.18772413
129	0x3e02ef1d	0.12786527
130	0x3c243a06	0.0100235995
131	0x3cbd63ee	0.02311894
132	0xbb98d3fd	-0.004663943
133	0xbe89d502	-0.26920325
134	0xbe62296d	-0.22086115
135	0x3e1a40cd	0.15063782
136	0x3da60dc7	0.081080966
137	0xbddc9a57	-0.107716255
138	0x3d640404	0.055667892
139	0x3e327715	0.17428239
140	0xbdc36705	-0.09541134
141	0xbd5ee36b	-0.0544161
142	0xbe2c668f	-0.16835998
143	0xbe29d4b2	-0.16585043
144	0xbde7a60c	-0.11310968
145	0x3e2eea05	0.17081459
146	0x3d11e2a4	0.035616532
147	0x3cfbeb57	0.030751867
148	0xbce81e73	-0.028334832
149	0xbc58e329	-0.013237753
150	0x3d229962	0.03969706
151	0xbda46af8	-0.08028215
152	0x3ce324c6	0.027727496
153	0x3d383d6b	0.044980448
154	0x3ca642ea	0.020295579
155	0xbd3a9a8d	-0.045557547
156	0x3d46fafc	0.0485792
157	0x3d335e20	0.043790936
158	0x3e7bc026	0.24585018
159	0xbd653523	-0.05595888
160	0x3d87b1b5	0.06625692
161	0xbc86ec58	-0.01647012
162	0xbc12115b	-0.008915271
163	0xbbf97a09	-0.0076134247
164	0x3c00296a	0.007822374
165	0x3d6eb23c	0.058275446
166	0x3d4720ed	0.048615385
167	0xbd515be7	-0.051113036
168	0x3bd9a770	0.0066422746
169	0x3c514db6	0.012774875
170	0xbd5fbad7	-0.054621544
171	0xbd109841	-0.03530145
172	0xbb87a665	-0.004139709
173	0x3d57143a	0.052509524
174	0x3db72f8a	0.08944614
175	0x3d0b69e1	0.03403652
176	0x3db47df4	0.08813086
177	0xbd03474c	-0.032050416
178	0x3c124dfd	0.008929727
179	0xbd284612	-0.04108245
180	0x3bb69a42	0.005572588
181	0x3d15d398	0.036578745
182	0xbbc60a6c	-0.006043723
183	0xbca1e515	-0.019762555
184	0x3cf1ce9a	0.02951746
185	0xbd6279cb	-0.055291932
186	0x3d860755	0.06544367
187	0xbc47a79b	-0.012185956
188	0xbd30f3c2	-0.043201216
189	0xbc58ae1d	-0.013225106
190	0xbd9ebd90	-0.07751
191	0x3caf6a9e	0.021413144
192	0xbdbd58aa	-0.09245427
193	0x3d6105f4	0.054937318
194	0x3cd61a43	0.02613557
195	0xba9f4d3a	-0.0012153753
196	0xbc8e4bb6	-0.017370086
197	0xbe19aa66	-0.15006408
198	0xbddbe05f	-0.10736155
199	0x3d9196f9	0.07108874
200	0x3c189142	0.009311976
201	0xbd21525b	-0.03938518
202	0x3cfd719a	0.030937959
203	0x3d9313da	0.07181521
204	0xbcc227fa	-0.023700703
205	0xbcf41dc4	-0.02979935
206	0xbde3b6b2	-0.11118831
207	0xbd94df4b	-0.07269152
208	0xbda9088d	-0.08253584
209	0x3d87a577	0.06623357
210	0x3c1f87e9	0.009736993
211	0x3d0f03d5	0.034915764
212	0x3bdd7ecf	0.0067595015
213	0xbca43b62	-0.020047847
214	0x3c22f856	0.009946903
215	0xbcc72f7c	-0.024314635
216	0xbccf3d87	-0.025297893
217	0x3d2399b7	0.039941516
218	0xbd3b5adf	-0.04574096
219	0x3bfa1376	0.0076317145
220	0x3ce991ce	0.028511908
221	0x3d2f6fa0	0.042831063
222	0x3de48267	0.11157685
223	0xbce88f34	-0.028388597
224	0x3b293204	0.0025817165
225	0xbd8338bb	-0.06407305
226	0xbbf0b630	-0.007345937
227	0x3c840dd8	0.016119882
228	0x3c7a5776	0.015279641
229	0x3d780333	0.060549926
230	0x3d3c045a	0.045902587
231	0xbc795151	-0.015217141
232	0xbd5e6c19	-0.05430231
233	0x3ca403ef	0.020021407
234	0x3d5ee5eb	0.054418486
235	0xbd63198d	-0.05544429
236	0x3d14e038	0.036346644
237	0xbd83072c	-0.06397852
238	0xbc792410	-0.015206352
239	0x3d8694df	0.06571364
240	0xbd9236bf	-0.07139348
241	0xbd48140b	-0.04884724
242	0xbccdd08b	-0.025123855
243	0x3d89c874	0.067276865
244	0xbc0ed424	-0.00871757
245	0xbd7fce2a	-0.062452473
246	0x3c73e804	0.01488686
247	0x3d7ba09a	0.06143246
248	0x3a0f0f2f	0.00054572796
249	0x3d7d42b9	0.06183121
250	0xbe068665	-0.13137205
251	0x3d324303	0.04352094
252	0x3d5f7dcf	0.05456334
253	0xbd50dd15	-0.05099209
254	0xbd76eaff	-0.060282703
255	0xbc5bafcf	-0.013408615

context_transformer_0/ffn_layer_0/intermediate_dense/einsum/Einsum;context_transformer_0/ffn_layer_0/intermediate_dense/Relu;context_transformer_0/ffn_layer_0/intermediate_dense/add f4 [32]
0	0xbe7029c8	-0.23453438
1	0xbe3c4db4	-0.18389016
2	0xbe897720	-0.26848698
3	0xbe746ebd	-0.23870368
4	0xbeb3527e	-0.35023874
5	0xbdaf42c2	-0.08557655
6	0xbea703bf	-0.32620046
7	0xbe318dd8	-0.17339265
8	0xbe81f9b2	-0.25385815
9	0xbe771537	-0.24129187
10	0xbbe7902c	-0.007066747
11	0xbddb5711	-0.10709966
12	0xbedad5df	-0.42741296
13	0xbe851df9	-0.2599943
14	0xbe2261aa	-0.15857568
15	0xbeb9ae1b	-0.36265644
16	0xbe5d49f6	-0.21610245
17	0xbea8d49a	-0.32974702
18	0xbe8c5aef	-0.27413127
19	0xbe8b891e	-0.2725305
20	0xbe9034bb	-0.2816523
21	0xbeb6168e	-0.35564083
22	0xbe57bb24	-0.21067482
23	0xbe4c0df5	-0.19927199
24	0xbefe91c0	-0.49720573
25	0xbe5ba557	-0.21449791
26	0xbe44b83d	-0.19210906
27	0xbf05f388	-0.52324724
28	0xbe41d1bf	-0.18927668
29	0xbe930c92	-0.28720528
30	0xbedad55f	-0.42740914
31	0xbe2918bd	-0.16513343

context_transformer_0/attention/norm/mul;context_transformer_0/attention/norm/add;context_transformer_0/ffn_layer_0/intermediate_dense/einsum/Einsum;context_transformer_0/ffn_layer_0/intermediate_dense/Relu;context_transformer_0/ffn_layer_0/intermediate_dense/add f4 [32, 32]
0	0xbe3d0a5b	-0.18460982
1	0x3ed3c641	0.41362193
2	0xbd82d8bb	-0.06388994
3	0xbccf38bb	-0.025295606
4	0x3e9f7159	0.31141165
5	0xbe19d206	-0.15021524
6	0xbea16540	-0.3152256
7	0xbe34ab33	-0.17643432
8	0x3e3120e2	0.172977
9	0x3c0699ba	0.008215362
10	0xbdb96e67	-0.09054261
11	0xbe86c285	-0.26320282
12	0xbe0467cb	-0.12930219
13	0xbd5f64af	-0.05453938
14	0x3e8655af	0.26237246
15	0xbeb08c02	-0.34481817
16	0xbdb0ffff	-0.086425774
17	0xbd969bdf	-0.07353949
18	0x3dfd72f1	0.12375439
19	0xbdeb9202	-0.11502458
20	0xbe8dddaf	-0.27708194
21	0xbe3f69ee	-0.18692753
22	0xbd5698e6	-0.05239191
23	0xbd8aef99	-0.06783981
24	0xbeb71011	-0.35754445
25	0xbebf12f3	-0.37319145
26	0x3e4378dd	0.19089074
27	0x3df77dd1	0.120845445
28	0x3c94fec3	0.018187886
29	0x3deb14b7	0.114785604
30	0xbdb373ff	-0.08762359
31	0x3dc4d864	0.09611586
32	0x3e0bfc07	0.1367036
33	0x3d8db863	0.069199346
34	0xbd82a635	-0.06379358
35	0xbd1c06da	-0.03809247
36	0x3dcbb10c	0.099458784
37	0x3d0aef3f	0.03391957
38	0x3db00384	0.085944206
39	0xbd37b5ce	-0.044851117
40	0xbe550e6f	-0.20806287
41	0xbe79bd21	-0.24388553
42	0xbe0d8826	-0.13821468
43	0x3e1d0552	0.15334061
44	0xbdd38b4d	-0.10329304
45	0x3e095c0a	0.13414016
46	0x3bb3e866	0.0054903505
47	0xbd1f7d67	-0.038937952
48	0xbe3f6674	-0.18691427
49	0x3e6ef84b	0.23336904
50	0xbe1908d8	-0.1494478
51	0xbe3a68fd	-0.18204112
52	0xbe599532	-0.2124832
53	0x3e0e1efa	0.13879004
54	0x3e756118	0.2396282
55	0x3e87864c	0.26469648
56	0xbc299411	-0.010350243
57	0xbe0bf561	-0.13667823
58	0xbd692a80	-0.056925297
59	0x3db80304	0.0898495
60	0x3d2679b3	0.040643405
61	0x3db03436	0.086037084
62	0x3df07cad	0.1174253
63	0xbebeb5cc	-0.37248075
64	0x3dfd76e5	0.12376193
65	0xbd704ae5	-0.058665175
66	0x3dcdd755	0.10050837
67	0x3b664f26	0.003514239
68	0x3e371b35	0.17881472
69	0xbe34e556	-0.1766561
70	0x3c2a64b5	0.010399987
71	0x3e59609f	0.21228264
72	0xbdd5f615	-0.10447327
73	0xbe9bb067	-0.30408022
74	0xbd18221f	-0.037141915
75	0x3d426d50	0.04746753
76	0xbd5cfc1c	-0.053951368
77	0x3d682aaf	0.05668133
78	0x3e3d5faf	0.18493532
79	0xbdfbd2c7	-0.12296062
80	0x3e570e9b	0.21001665
81	0x3d95550e	0.072916135
82	0xbe91fb57	-0.2851207
83	0x3e7a4482	0.24440196
84	0x3e3a358d	0.1818449
85	0x3db1b84a	0.086777285
86	0xbef0b3c4	-0.4701215
87	0x3d6e98a2	0.05825103
88	0xbc0a1ef7	-0.008430234
89	0xbd937243	-0.07199528
90	0x3e231392	0.15925434
91	0xbe241248	-0.16022599
92	0x3ca8d0db	0.020607403
93	0x3ec9122e	0.39271683
94	0x3edca18f	0.4309201
95	0xbdde7689	-0.108624525
96	0xbe5fc655	-0.21853001
97	0x3cd28bcf	0.025701432
98	0xbeb5e734	-0.35527956
99	0x3d83754c	0.06418857
100	0x3ee9915a	0.45618707
101	0x3e3c9c62	0.1841903
102	0xbe7d7867	-0.24752961
103	0x3e4d5d4a	0.20055118
104	0x3ef9584c	0.48700178
105	0x3e826450	0.25467157
106	0xbe7f450d	-0.24928685
107	0x3d3d2b70	0.046184003
108	0x3d1a4983	0.037667762
109	0xbcf0cce4	-0.029394574
110	0xbdf04fa3	-0.117339395
111	0x3c642dd4	0.013926942
112	0x3db00ff1	0.085967906
113	0xbe9235f2	-0.28556782
114	0xbd9b7df9	-0.07592387
115	0xbecaace4	-0.3958503
116	0xbe5a3dea	-0.21312681
117	0xba1b1e15	-0.00059172633
118	0x3cc261bd	0.023728246
119	0x3c9cf219	0.01915841
120	0xbe4d6b76	-0.20060524
121	0x3c9cca02	0.019139294
122	0x3e866e63	0.26256093
123	0xbe6ebd6c	-0.23314446
124	0xbecbe8e5	-0.39826122
125	0xbdd4fa43	-0.10399296
126	0x3e379225	0.17926843
127	0xbbcc2fe0	-0.006231293
128	0xbc59e3cb	-0.013298939
129	0x3e718fc1	0.23589994
130	0x3d015754	0.031577423
131	0xbeaf110b	-0.3419269
132	0xbe24a822	-0.16079763
133	0xbe5263cb	-0.2054588
134	0xbba2f8a0	-0.004973486
135	0xbdbe38db	-0.09288188
136	0xbea04b89	-0.3130763
137	0x3db40402	0.08789827
138	0xbe28c90e	-0.16482946
139	0x3e8b272a	0.27178317
140	0xbe483fb4	-0.19555551
141	0xbe898773	-0.26861152
142	0x3e3936a2	0.18087247
143	0x3d843ede	0.064573035
144	0xbe778081	-0.24170114
145	0x3d09629f	0.033541318
146	0xbd7b67f8	-0.06137845
147	0x3e85a63a	0.26103383
148	0x3de8ab57	0.113608055
149	0xbe5e6244	-0.21717173
150	0x3dc9a7a1	0.09846426
151	0xbeb18fb6	-0.34679955
152	0x3ced2b98	0.028951451
153	0xbe8201a0	-0.25391865
154	0xbe6e63c3	-0.23280244
155	0x3ed5e7d7	0.41778442
156	0x3c3a3ad3	0.011366564
157	0xbceb54da	-0.028726984
158	0x3dedabc3	0.116050266
159	0xbe238126	-0.15967235
160	0x3d6b488d	0.057442237
161	0xbdbb5dce	-0.09148751
162	0x3b01ecc1	0.0019824954
163	0xbd1b83e9	-0.037967596
164	0xbef4eab5	-0.47835317
165	0xbe120019	-0.1425785
166	0xbea34bb5	-0.31893697
167	0xbea3aabd	-0.319662
168	0xbe19b7c9	-0.15011515
169	0x3dcf10a4	0.10110596
170	0xbd454ab8	-0.04816696
171	0xbd6b01bc	-0.0573747
172	0x3c88b82b	0.01668938
173	0x3e81a845	0.25323692
174	0xbe57683c	-0.21035856
175	0x3dbdb81f	0.09263634
176	0x3e5077fc	0.2035827
177	0x3d3bc1f5	0.04583927
178	0x3ce457b4	0.027873851
179	0xbe4bf750	-0.19918561
180	0x3e2292c8	0.15876305
181	0x3e379c10	0.17930627
182	0xbf069c9b	-0.5258271
183	0xbcbbb916	-0.022915404
184	0xbc6893b3	-0.0141953705
185	0xbd9bb987	-0.07603746
186	0xbe65095e	-0.22366855
187	0xbe7522fd	-0.23939128
188	0xbeb04c86	-0.34433383
189	0xbe9d29e6	-0.30696028
190	0xbd9c2144	-0.076235324
191	0x3dbb2988	0.09138781
192	0xbcb58e76	-0.022162657
193	0x3e4583ac	0.1928851
194	0xbd1ff88f	-0.039055403
195	0x3e01f75b	0.12692015
196	0x3ea1f534	0.31632388
197	0xbdf1e32c	-0.11810908
198	0xbc9cc6b1	-0.019137712
199	0x3e2195ec	0.15779847
200	0x3e8088b1	0.25104287
201	0x3de2fc8f	0.11083328
202	0xbc150868	-0.0090962425
203	0x3d059ae6	0.032618426
204	0x3d678331	0.0565216
205	0xbe4d329b	-0.20038836
206	0xbf153416	-0.582826
207	0xbd8c2f73	-0.06844988
208	0xbd951b79	-0.072806306
209	0xbd8f4d8e	-0.06997214
210	0x3e3388d5	0.17532666
211	0xbdff13a4	-0.12454918
212	0xbe7e5ae7	-0.24839364
213	0x3e570009	0.20996107
214	0x3d9e884c	0.0774084
215	0xbb06684a	-0.0020508938
216	0xbe1b5281	-0.15168191
217	0xbd02cb76	-0.031932317
218	0x3f5f06ba	0.8711964
219	0xbe299073	-0.16559009
220	0xbdff70db	-0.12472697
221	0xbe03a870	-0.12857223
222	0xbd35aebf	-0.044356104
223	0x3d089de0	0.033353686
224	0x3ddf7a22	0.10911967
225	0xbe1ccb04	-0.1531182
226	0x3d095c38	0.033535212
227	0xbc3e598e	-0.011618031
228	0x3f1331c7	0.5749783
229	0x3df39019	0.11892719
230	0xbc60d93c	-0.013723668
231	0xbea39a55	-0.31953683
232	0x3ecedf95	0.40404955
233	0xbed43e62	-0.41453844
234	0x3c3ef2f2	0.011654602
235	0x3bdfbf3d	0.0068282173
236	0xbdf2ea74	-0.11861125
237	0x3d83864d	0.064221
238	0x3e75c760	0.24001837
239	0xbea7a6e0	-0.32744503
240	0x3ea88846	0.32916468
241	0xbdbe8363	-0.09302404
242	0xbd5c2436	-0.05374547
243	0xbd14617d	-0.036225785
244	0xbd98aa52	-0.07454361
245	0xbb040ac0	-0.002014801
246	0xbe7b6f9d	-0.24554296
247	0xbe127d87	-0.14305697
248	0x3d97fc5f	0.07421183
249	0x3cc9c7ba	0.02463137
250	0x3eb62d42	0.35581404
251	0x3e542e70	0.2072084
252	0x3e032476	0.12806877
253	0x3d747ec4	0.059691206
254	0x3dbc79ec	0.09202942
255	0xbe10becb	-0.14135282

context_transformer_0/ffn_layer_1/intermediate_dense/einsum/Einsum;context_transformer_0/ffn_layer_1/intermediate_dense/Relu;context_transformer_0/ffn_layer_1/intermediate_dense/add f4 [32]
0	0x3e316a78	0.17325771
1	0xbe4599a5	-0.19296892
2	0xbdf119d8	-0.117725074
3	0xbe8697fe	-0.26287836
4	0xbd63f28d	-0.055651236
5	0xbe78f557	-0.2431234
6	0x3db9f638	0.090801656
7	0xbe802064	-0.25024712
8	0xbea18a75	-0.31550947
9	0xbe62bfab	-0.22143428
10	0xbd576db6	-0.052594863
11	0xbdc31084	-0.095246345
12	0xbddb3e05	-0.10705189
13	0xbeb49bb2	-0.35275036
14	0xbe4650fa	-0.19366828
15	0xbe9eabae	-0.30990356
16	0xbe53f7fc	-0.20700067
17	0x3d79a929	0.06095234
18	0xbe0b04ac	-0.13576001
19	0xbe0c904b	-0.13726918
20	0xbd4cf6a6	-0.05003991
21	0xbe751f05	-0.23937614
22	0xbf02e954	-0.5113728
23	0x3db7e306	0.08978848
24	0x3d710828	0.05884567
25	0xbe14ee9c	-0.14544147
26	0xbe034b61	-0.12821724
27	0xbdb9b24b	-0.0906721
28	0x3e4f6ec3	0.20257096
29	0xbd042510	-0.032261908
30	0xbdbc90d0	-0.09207308
31	0x3d1280c4	0.03576733

context_transformer_0/ffn_layer_0/norm/mul;context_transformer_0/ffn_layer_0/norm/add;context_transformer_0/ffn_layer_1/intermediate_dense/einsum/Einsum;context_transformer_0/ffn_layer_1/intermediate_dense/Relu;context_transformer_0/ffn_layer_1/intermediate_dense/add f4 [32, 32]
0	0xbf00c3b2	-0.5029861
1	0xbe1eb880	-0.15500069
2	0x3c0554b2	0.008137869
3	0xbca4d193	-0.020119464
4	0xbcdc75ec	-0.026911698
5	0xbd4437e4	-0.047904864
6	0xbee538b6	-0.4476983
7	0x3dba9c7e	0.0911188
8	0xbde3407b	-0.11096283
9	0xbbe5d148	-0.0070134737
10	0xbdec0728	-0.115248024
11	0x3d859a61	0.06523586
12	0xbe53e0d8	-0.2069124
13	0x3cc029cb	0.023457428
14	0xbab03bfd	-0.0013445612
15	0xbe39ff16	-0.18163714
16	0x3e14433c	0.14478773
17	0xbd8036c4	-0.06260446
18	0xbe993661	-0.299243
19	0x3de2f8ad	0.110825874
20	0xbe2af03f	-0.16693209
21	0x3c2f03d7	0.010682068
22	0xb993ba78	-0.00028176955
23	0xbc776c26	-0.015101468
24	0xbe048721	-0.12942173
25	0xbf454f0e	-0.7707375
26	0xbe026b79	-0.1273631
27	0x3e02150a	0.12703338
28	0x3cbc3937	0.0229765
29	0x3de225c3	0.11042359
30	0x3e657fa9	0.2241198
31	0xbda14f04	-0.07876399
32	0x3d9709dc	0.073749274
33	0xbd8d5ec4	-0.06902841
34	0x3d0bcdac	0.03413169
35	0xbd712923	-0.05887712
36	0xbdaa5d63	-0.08318593
37	0xbe6dc9cd	-0.23221512
38	0x3d52cb17	0.051463213
39	0xbc3138c5	-0.010816758
40	0x3d0dda29	0.034631882
41	0x3dc646f4	0.09681502
42	0xbe17aa27	-0.14811002
43	0x3ddb29fa	0.10701366
44	0xbe8d3a2f	-0.27583453
45	0x3d44bfd6	0.04803451
46	0x3dff1bcc	0.12456474
47	0x3deb3199	0.114840694
48	0xbdc435b7	-0.09580558
49	0x3cebc125	0.028778622
50	0xbdf0c87a	-0.11756988
51	0x3ddbc781	0.10731412
52	0xbe2a35f1	-0.1662214
53	0xbe014377	-0.12623392
54	0xbbc14c65	-0.0058989995
55	0xbe75c336	-0.24000248
56	0xbe13695e	-0.14395663
57	0xbe819551	-0.25309232
58	0x3cdad1c4	0.026711352
59	0xbe071196	-0.13190302
60	0x3d5020f1	0.050812665
61	0xbd64aa45	-0.055826444
62	0xbc307484	-0.010769967
63	0x3df60d04	0.12014201
64	0x3e18eea9	0.14934792
65	0x3ee2128b	0.44154772
66	0xbd106e96	-0.035261713
67	0x3d5475cb	0.05187015
68	0x3c8ec356	0.017427128
69	0xbe204e8f	-0.15654968
70	0xbd6504f6	-0.055912934
71	0x3dbbee76	0.09176342
72	0x3ecd7c73	0.4013401
73	0xbd8caa34	-0.06868401
74	0xbd53d6a0	-0.051718354
75	0xbe8c0328	-0.27346158
76	0xbe15357f	-0.14571188
77	0xbce8543d	-0.02836048
78	0x3d67d433	0.056598853
79	0x3e04cf58	0.1296972
80	0xbe42f965	-0.19040449
81	0xbe5fe48a	-0.21864524
82	0x3e06288b	0.13101403
83	0xbd9e19b9	-0.0771975
84	0x3e3fba79	0.18723477
85	0x3e0853a6	0.1331316
86	0xbe4f70d5	-0.20257886
87	0xbe09e321	-0.13465549
88	0xbe81a367	-0.2531998
89	0xbf0b728c	-0.5447166
90	0x3eba0597	0.3633239
91	0x3e9546ac	0.2915548
92	0xbe882f57	-0.26598617
93	0x3d89de9b	0.06731912
94	0xbe1076cf	-0.14107822
95	0xbd91fdd6	-0.071284935
96	0xbe2876f6	-0.1645163
97	0x3eb89ce8	0.3605721
98	0x3e941d6f	0.28928706
99	0x3ee415b2	0.44547802
100	0xbf12725c	-0.5720575
101	0x3e97e258	0.29664874
102	0xbd008dd2	-0.03138525
103	0xbdc69c68	-0.09697801
104	0xbe749f03	-0.23888783
105	0x3e4060bf	0.18786906
106	0x3e1aa734	0.15102845
107	0x3d640e73	0.055677842
108	0xbe053ca1	-0.1301141
109	0xbea7156e	-0.32633537
110	0xbe954e51	-0.29161313
111	0x3e67514e	0.22589609
112	0x3e2cba03	0.16867833
113	0x3f04bd6a	0.5185152
114	0x3e114a65	0.14188536
115	0xbe54e9f7	-0.20792376
116	0x3e3b96da	0.18319264
117	0xbd8b4508	-0.06800276
118	0x3e4d6ae7	0.20060311
119	0xbeb1025e	-0.3457212
120	0xbe8034d4	-0.25040305
121	0xbdeae08f	-0.114686124
122	0xbba93bac	-0.005164584
123	0x3da037d7	0.078231506
124	0xbd9d968e	-0.07694732
125	0xbe1e4b95	-0.1545852
126	0x3c5ce74e	0.013482882
127	0x3e3f0bd2	0.18656853
128	0xbde8e76d	-0.11372266
129	0x3e3a54f1	0.18196465
130	0xbc0dc824	-0.008653674
131	0x3e935845	0.28778282
132	0xbdd495ef	-0.1038016
133	0xbe88b654	-0.26701605
134	0xbb34b390	-0.0027572848
135	0x3d5dd390	0.05415684
136	0xbde86328	-0.113470376
137	0xbd5e2b96	-0.054240786
138	0x3db73407	0.0894547
139	0xbcc366a6	-0.023852658
140	0x3d47ca29	0.04877678
141	0x3e4659df	0.1937022
142	0xbd8a5180	-0.06753826
143	0xbd6eb4ba	-0.058277823
144	0x3e23132e	0.15925285
145	0x3e20c633	0.15700607
146	0xbeafa945	-0.3430883
147	0xbe9cb25b	-0.30604824
148	0xbd82af26	-0.06381063
149	0x3ecd6b97	0.40121147
150	0x3da3b4ce	0.0799347
151	0x3d30631b	0.043063264
152	0xbe762cb4	-0.2404049
153	0x3d0440cc	0.032288358
154	0x3f0bc5b3	0.5459854
155	0x3d41c432	0.047306247
156	0x3d9f60a2	0.07782103
157	0xbd103429	-0.035205994
158	0x3eb2c9da	0.34919626
159	0xbd66ffc0	-0.056396246
160	0xbdd4c4fa	-0.10389133
161	0xbe822fc4	-0.25427067
162	0x3bd9f5f6	0.0066516353
163	0x3e9ad023	0.3023692
164	0x3e500c2d	0.20317145
165	0x3d7a3359	0.061084125
166	0x3e440bc6	0.19145116
167	0xbeebf4f5	-0.46085325
168	0xbdda554a	-0.10660799
169	0xbe7928e6	-0.24332008
170	0x3e65256f	0.22377561
171	0xbf275ed8	-0.65379095
172	0xbd16dffa	-0.036834694
173	0xbf17a0e7	-0.5922989
174	0x3ed9af7f	0.42516705
175	0x3db7f24b	0.089817606
176	0xbcaf2857	-0.02138154
177	0xbdb1399b	-0.086535655
178	0x3b38ecc0	0.0028217286
179	0x3d5ca4d7	0.05386814
180	0x3bc71243	0.006075175
181	0xbefeee87	-0.49791357
182	0xbe24795b	-0.16061918
183	0xbf598882	-0.8497392
184	0xbd8c136a	-0.068396404
185	0xbd6226ad	-0.055212665
186	0x3e4c5a86	0.19956407
187	0xbbc0427b	-0.0058673
188	0x3d8962e4	0.06708315
189	0xbbef97e9	-0.0073118103
190	0xbccf82b8	-0.025330886
191	0xbdcab92e	-0.098986015
192	0xbe66a68e	-0.22524473
193	0x3d9c81cc	0.07641944
194	0x3d664c04	0.056224838
195	0xbd2cc107	-0.042176273
196	0xbd050abd	-0.032480944
197	0xbe856a52	-0.26057678
198	0xbea742e1	-0.32668212
199	0x3e09b99c	0.1344971
200	0x3c6f8843	0.01461989
201	0xbd649169	-0.055802736
202	0xbe6b0e8b	-0.22954766
203	0x3e0360ba	0.12829867
204	0xbeb7cd2a	-0.35898715
205	0x3d0a06f7	0.03369805
206	0x3dd64fa6	0.104644105
207	0x3caedbf4	0.021345116
208	0xbe60f16b	-0.21967094
209	0xbe21f4db	-0.15816061
210	0xbd18a078	-0.03726241
211	0xbe67a965	-0.22623213
212	0x3e66550a	0.22493377
213	0x3e2a861f	0.16652726
214	0xbe137c2c	-0.14402837
215	0x3cf396e6	0.02973504
216	0xbdd8259a	-0.10554047
217	0xbf811285	-1.0083777
218	0x3c1b04e3	0.009461614
219	0x3e27990a	0.16366974
220	0xbe81ee2b	-0.2537702
221	0xbbb4723c	-0.005506782
222	0x3d442948	0.04789093
223	0xbdd05a19	-0.10173435
224	0xbe05fe93	-0.13085394
225	0x3df78430	0.1208576
226	0x3d3b2731	0.045691673
227	0x3eb6d80f	0.35711715
228	0xbd93ed55	-0.07223002
229	0x3ddac519	0.10682125
230	0x3de92a54	0.113850266
231	0x3e9e9ba4	0.3097812
232	0x3e782635	0.24233325
233	0xbdf4bbe7	-0.11949902
234	0x3dcebb5c	0.1009433
235	0xbefcf8f6	-0.49408692
236	0xbd06f399	-0.032947157
237	0xbd9dedfc	-0.077114075
238	0x3e0bc8a9	0.13650765
239	0xbe0f15df	-0.13973187
240	0xbd5ad59a	-0.053426363
241	0x3db8f16c	0.090304226
242	0xbdac112d	-0.084017135
243	0x3f37e364	0.71831346
244	0xbe8e9484	-0.27847683
245	0xbc201396	-0.009770295
246	0x3d3c3f52	0.045958824
247	0x3d9137c1	0.07090712
248	0x3c080482	0.008301856
249	0xbd6da6ca	-0.05802039
250	0x3e35143e	0.17683503
251	0x3e293504	0.1652413
252	0x3e772335	0.24134524
253	0x3d55de74	0.0522141
254	0x3ddb827b	0.107182465
255	0xbc75b42b	-0.014996569

context_transformer_0/ffn_layer_2/intermediate_dense/einsum/Einsum;context_transformer_0/ffn_layer_2/intermediate_dense/Relu;context_transformer_0/ffn_layer_2/intermediate_dense/add f4 [32]
0	0xbe40ab6b	-0.18815391
1	0xbe1c9e7a	-0.15294829
2	0xbe92cc07	-0.28671286
3	0xbe1bf490	-0.15230012
4	0xbd8fcbfc	-0.07021329
5	0xbdfad19e	-0.122470126
6	0xbe85c27a	-0.26124936
7	0xbdb0883b	-0.08619734
8	0xbed0a066	-0.40747374
9	0xbec21d46	-0.3791296
10	0xbede74ec	-0.4344858
11	0xbd971e3b	-0.07378813
12	0xbeb5889e	-0.35455793
13	0xbe068c79	-0.13139524
14	0xbe43a12b	-0.1910445
15	0x3c86e8a4	0.016468354
16	0xb8c94795	-9.59776e-05
17	0xbeaab435	-0.33340612
18	0xbca73a72	-0.020413611
19	0xbe2589a5	-0.16165788
20	0xbe298d57	-0.16557823
21	0xbde22408	-0.11042029
22	0xbe915b05	-0.28389755
23	0xbcff44f2	-0.031160805
24	0xbd0b75c7	-0.034047868
25	0xbe055302	-0.13019946
26	0xbe0c1b33	-0.1368225
27	0xbe767fbc	-0.24072164
28	0xbd7135cd	-0.0588892
29	0xbe856f98	-0.26061702
30	0xbebb8c46	-0.36630458
31	0xbe0efadd	-0.13962884

context_transformer_0/ffn_layer_1/norm/mul;context_transformer_0/ffn_layer_1/norm/add;context_transformer_0/ffn_layer_2/intermediate_dense/einsum/Einsum;context_transformer_0/ffn_layer_2/intermediate_dense/Relu;context_transformer_0/ffn_layer_2/intermediate_dense/add f4 [32, 32]
0	0x3dcd69b6	0.100299284
1	0x3ea3c09a	0.3198288
2	0x3e2baac4	0.1676436
3	0x3dc1fe16	0.09472291
4	0xbe943d49	-0.28953007
5	0xbd60bc16	-0.054866873
6	0x3dbaf8c3	0.09129479
7	0x3d80b4b4	0.062844664
8	0x3d2dba1f	0.042413827
9	0x3e47a389	0.19495977
10	0x3d5c9829	0.05385605
11	0x3e6e2a77	0.23258387
12	0xbb5ce334	-0.003370476
13	0xbe173d16	-0.14769396
14	0xbeb06bab	-0.34457144
15	0x3c2e768d	0.010648382
16	0xbcbd3db2	-0.023100708
17	0x3c95cbbc	0.018285625
18	0xbe9f3176	-0.31092423
19	0x3d6fa684	0.05850841
20	0xbe02f30d	-0.12788029
21	0x3df638e4	0.1202257
22	0x3daeed14	0.08541313
23	0xbb9a6041	-0.0047111814
24	0xba002393	-0.00048881135
25	0xbdf79e38	-0.12090725
26	0x3eb3db7f	0.351284
27	0xbdd8fe66	-0.10595398
28	0xbd88beee	-0.06677042
29	0xbe3efadf	-0.18650387
30	0x3e9302cf	0.2871308
31	0xbd50bded	-0.050962377
32	0xbe0483b4	-0.12940866
33	0x3da3451a	0.079721645
34	0xbdb512fb	-0.08841511
35	0x3de6b639	0.11265225
36	0xbc676daf	-0.014125272
37	0x3e9b4761	0.30327895
38	0xbdc32a3f	-0.09529542
39	0x3d14d122	0.036332257
40	0xbdc87a07	-0.097889
41	0xbdf32768	-0.118727505
42	0x3d8c5ccf	0.06853639
43	0x3e4fbcaa	0.20286813
44	0xbc1846a4	-0.009294186
45	0xbc50e898	-0.012750767
46	0x3c139c27	0.009009398
47	0xbdefbfb1	-0.11706484
48	0x3e575b9a	0.21031037
49	0x3c17cc7e	0.009265063
50	0xbe5c78a3	-0.21530394
51	0xbd7509cd	-0.0598238
52	0x3df58750	0.119886994
53	0x3e01a645	0.12661083
54	0xbeb8b928	-0.36078763
55	0xbda501cd	-0.08056984
56	0x3d6f2db1	0.058393184
57	0xbe838c5d	-0.25693026
58	0xbde2473d	-0.11048744
59	0x3e3792a0	0.17927027
60	0xbd8ee716	-0.0697767
61	0x3e4c171a	0.19930688
62	0x3e6f9541	0.2339678
63	0x3e4de6e8	0.20107615
64	0x3e06e6b6	0.13173947
65	0x3caacabf	0.02084863
66	0x3e32cb99	0.17460479
67	0xbb55b024	-0.0032606209
68	0x3cd56fc1	0.026054265
69	0xbe7317e8	-0.23739588
70	0x3d9972bc	0.07492587
71	0x3e55c311	0.20875193
72	0xbe41763a	-0.18892756
73	0xbbcc7a75	-0.006240184
74	0x3d8704a1	0.0659268
75	0x3e700c1b	0.23442118
76	0xbe16c1c5	-0.14722355
77	0xbc41cc99	-0.011828565
78	0xbdba3c0a	-0.09093483
79	0x3e5a5f8a	0.21325508
80	0xbe420331	-0.1894653
81	0x3de9f6e3	0.11424043
82	0xbde9ee9b	-0.114224635
83	0xbcc543f5	-0.024080256
84	0x3cf194b4	0.029489852
85	0xbd99f36c	-0.07517132
86	0xbdac15b9	-0.08402581
87	0xbe067840	-0.13131809
88	0x3dd297b0	0.10282838
89	0xbe478507	-0.1948434
90	0xbe20aba6	-0.15690479
91	0xbd5e01fd	-0.054201115
92	0x3e194f0c	0.1497156
93	0xbdf35c84	-0.1188288
94	0x3e81455a	0.25248224
95	0x3dc0d41e	0.09415458
96	0x3c9c7a1a	0.019101191
97	0x3c90af3d	0.017661685
98	0xbcd97d39	-0.026548969
99	0x3a1f46f7	0.0006075943
100	0xbd01e935	-0.031716544
101	0xbd75d6c3	-0.060019266
102	0x3ad7a5b1	0.0016452578
103	0xbcd458b9	-0.025921213
104	0x3afde35b	0.0019370125
105	0x3ad6107b	0.0016331816
106	0xbd1596ab	-0.03652064
107	0xbd424b3a	-0.047435023
108	0xbc655e32	-0.013999509
109	0xbda3d983	-0.080004714
110	0x3c5671b1	0.01308863
111	0xbcc721ca	-0.024308104
112	0xbbac4dbc	-0.00525829
113	0x3be8dcff	0.007106423
114	0xbc507af7	-0.01272463
115	0xbcf91848	-0.030407086
116	0xbd07691b	-0.03305922
117	0x3d039dcf	0.03213292
118	0xbc9adb01	-0.018903257
119	0xbd0704e8	-0.032963663
120	0xbcbaaa05	-0.02278615
121	0xbd321dfe	-0.043485634
122	0xbbcfd3f0	-0.0063424036
123	0x3cb21c6e	0.021742072
124	0x3bad6ce9	0.005292524
125	0xbc83e5cb	-0.016100785
126	0x3b33005c	0.0027313447
127	0xbc754f7f	-0.014972567
128	0x3dd638f4	0.10460082
129	0xbdaca0e7	-0.08429127
130	0xbe94854f	-0.29007956
131	0xbdfa8c30	-0.1223377
132	0x3dbe9e3d	0.09307525
133	0xbd8b9a33	-0.068165205
134	0xbe691084	-0.22760206
135	0x3e4ad700	0.19808578
136	0x3e270370	0.16309905
137	0x3a51319b	0.0007980109
138	0xbe2b9a4c	-0.16758078
139	0xbe049e6f	-0.12951063
140	0xbd3c5488	-0.045979053
141	0xbda2259b	-0.07917329
142	0xbd9958d2	-0.07487644
143	0xbe6905ed	-0.22756167
144	0x3d6cdbee	0.05782693
145	0xbcc44f4f	-0.023963599
146	0x3daf8195	0.08569638
147	0xbdb22be0	-0.08699775
148	0x3e5e4476	0.21705803
149	0xbe7705d2	-0.24123314
150	0xbe866d3f	-0.26255223
151	0xbe38ffdc	-0.18066353
152	0x3e6d21f6	0.23157486
153	0xbe025015	-0.12725861
154	0xbe8c8ded	-0.2745203
155	0xbe1ec7d0	-0.1550591
156	0x3cf73e30	0.03018102
157	0xbda369b6	-0.07979147
158	0xbda4ee3e	-0.080532536
159	0x3e0c4202	0.13697055
160	0xbdac2b24	-0.08406666
161	0x3e1bb10b	0.15204255
162	0xbdaa9605	-0.08329395
163	0x3e421349	0.18952669
164	0x3da0f1c9	0.07858617
165	0x3e8bc3b7	0.27297756
166	0xbda11cd7	-0.07866829
167	0x3e3928bc	0.18081945
168	0x3e93ec29	0.28891113
169	0xbd2139d4	-0.03936179
170	0xbb8cb251	-0.004293718
171	0xbd92fab9	-0.07176728
172	0xbca048fe	-0.019566055
173	0xbc862394	-0.016374387
174	0x3c1d04f0	0.009583697
175	0x3d2a234f	0.04153758
176	0x3cbeba92	0.023282323
177	0xbbedc7fc	-0.007256506
178	0x3ebe7c5d	0.37204257
179	0x3dc6a197	0.096987896
180	0xbf01df84	-0.5073168
181	0x3e167812	0.1469424
182	0xbd2b2cd3	-0.041790795
183	0xbd1784ab	-0.036991756
184	0xbe3c3cb4	-0.18382531
185	0xbdc8f831	-0.09812964
186	0xbe473064	-0.19452053
187	0x3e1b3a2c	0.1515891
188	0x3e2dac45	0.16960247
189	0xbe1e2b73	-0.15446262
190	0xbe1650e5	-0.14679296
191	0xbd104922	-0.035225995
192	0xbd2c8fc8	-0.042129308
193	0xbe5b4b55	-0.21415456
194	0x3d6f9b21	0.05849755
195	0x3f006d5d	0.50166875
196	0x3d4180a4	0.047241822
197	0x3d904a0a	0.07045372
198	0x3e447c84	0.19188124
199	0x3e1377cf	0.14401172
200	0xbe410cec	-0.18852586
201	0x3dbe91b3	0.09305134
202	0xbdb2e06a	-0.0873421
203	0xbe4398fb	-0.19101326
204	0x3d62d517	0.055379
205	0xbe443b2a	-0.19163194
206	0x3e62c6e2	0.2214618
207	0xbe25c3ee	-0.16188022
208	0xbe89d47c	-0.26919925
209	0x3e2aab40	0.16666889
210	0xbc47a0b9	-0.012184315
211	0xbe6d9b5b	-0.23203795
212	0x3e80b584	0.25138485
213	0xbe2988e7	-0.1655613
214	0x3d94a5e1	0.072582014
215	0xbe77e2da	-0.24207631
216	0xbd4f0417	-0.05054101
217	0xbd89639d	-0.06708453
218	0xbc604963	-0.013689372
219	0x3df2170a	0.118208006
220	0x3b2a18b4	0.0025954666
221	0xbcd54271	-0.026032658
222	0xbdf1d30b	-0.118078314
223	0xbe5b2fbf	-0.21404932
224	0xbd86ad1e	-0.06575988
225	0x3e404e28	0.18779814
226	0x3e25141f	0.16120957
227	0x3e8408d0	0.25787973
228	0xbd8f641d	-0.07001517
229	0xbe5686ef	-0.2094991
230	0xba518026	-0.0007991813
231	0xbd2981de	-0.041383617
232	0xbd3ab41d	-0.045581926
233	0x3d3189ae	0.043344192
234	0x3cce819c	0.025208287
235	0x3da7dd01	0.0819645
236	0xbd1e1793	-0.0385967
237	0xbe9b2446	-0.30301112
238	0xbdb933ab	-0.09043058
239	0x3e593cfc	0.2121467
240	0x3e8da10d	0.27661934
241	0x3e9f1e1d	0.31077662
242	0xbe2ab419	-0.16670264
243	0xbdb802dc	-0.089849204
244	0x3e9d58ad	0.30731717
245	0xbeb93398	-0.36172175
246	0x3d111681	0.035421852
247	0xbdcbf983	-0.099597
248	0xbe025893	-0.12729101
249	0x3dc64be1	0.096824415
250	0x3e6e2718	0.232571
251	0xbdbc7077	-0.092011385
252	0x3de81d64	0.11333731
253	0x3e6f29e5	0.23355825
254	0xbc8349fb	-0.016026488
255	0x3e3db50d	0.18526097

context_transformer_0/ffn_layer_3/intermediate_dense/einsum/Einsum;context_transformer_0/ffn_layer_3/intermediate_dense/Relu;context_transformer_0/ffn_layer_3/intermediate_dense/add f4 [32]
0	0xbdf8dc9a	-0.121514514
1	0xbe4728c6	-0.19449148
2	0xbdc993a7	-0.098426156
3	0xbe38296a	-0.17984548
4	0xbe73ea9e	-0.23819968
5	0xbd926bc6	-0.071494624
6	0xbe4282d5	-0.18995221
7	0xbebe62f5	-0.37184873
8	0xbd4c8050	-0.049927056
9	0xbcb04159	-0.021515535
10	0xbd69c234	-0.057069972
11	0xba98ab7b	-0.0011647785
12	0xbdba0d79	-0.09084601
13	0xbe698bb4	-0.22807199
14	0xbe4bda7e	-0.19907567
15	0xbda6e8f6	-0.081499025
16	0xbdb65540	-0.08902979
17	0xbf029e67	-0.5102295
18	0xbe067799	-0.1313156
19	0xbe0254f3	-0.12727718
20	0xbe4ccfe9	-0.20001186
21	0xbd9624fd	-0.07331274
22	0x3c3c008a	0.011474738
23	0xbea86459	-0.3288906
24	0xbdde6025	-0.10858182
25	0xbeb1d4ec	-0.3473276
26	0xbdedd81f	-0.116134875
27	0x3dd28221	0.10278726
28	0xbe4ce5d3	-0.20009546
29	0xbd59f1b7	-0.053209033
30	0xbe10325a	-0.14081708
31	0xbe1f8dd2	-0.15581444
